models/digit_recognizer_v4_10cls_GRAY.tflite (tflite, 63968 bytes, 6 tensors)

tfl.pseudo_qconst1 i1 [10, 64]
-118 3 9 7 -102 32 43 -18
-14 -37 -85 25 22 14 -64 -84
-47 -98 -79 21 -46 9 26 15
-19 30 25 -3 -42 10 15 -19
-107 -127 4 -59 -34 -65 -8 2
-109 -37 -82 -55 -5 18 -30 -57
-62 -114 12 47 -3 35 16 5
-23 12 -65 -7 6 -67 -121 27
-94 1 1 -5 -50 26 -5 -44
-16 -119 -107 6 -111 -22 21 27
-121 7 -14 -43 24 11 -22 -50
-20 7 -1 -10 -5 21 -9 22
36 -43 -6 21 -77 -32 -9 20
1 16 -123 8 13 10 -98 -4
-66 -127 -82 2 -84 -45 13 -17
47 -21 -33 -2 14 18 -88 -59
24 -1 -29 3 34 -39 31 -75
34 -81 -96 -41 -16 -16 -48 -62
-89 25 -73 32 -103 -12 11 -116
-36 -83 25 -88 -34 -82 -12 8
-16 13 -11 21 32 -108 3 -28
-98 38 -19 23 -33 -46 12 -127
-125 44 29 30 18 -121 -58 -77
-8 -73 9 -4 9 -49 0 40
-48 21 -83 -15 35 29 20 -64
-15 -26 -14 -49 -83 32 21 50
-54 -15 -48 17 3 -8 -74 -18
-68 19 26 -117 44 -41 -15 -42
-21 -15 6 -10 23 -64 23 -26
39 -52 8 1 -1 -105 49 48
-50 -77 30 -41 -101 -55 -104 33
-93 -127 -84 0 -43 -79 21 4
00000000: 8a03 0907 9a20 2bee f2db ab19 160e c0ac
00000010: d19e b115 d209 1a0f ed1e 19fd d60a 0fed
00000020: 9581 04c5 debf f802 93db aec9 fb12 e2c7
00000030: c28e 0c2f fd23 1005 e90c bff9 06bd 871b
00000040: a201 01fb ce1a fbd4 f089 9506 91ea 151b
00000050: 8707 f2d5 180b eace ec07 fff6 fb15 f716
00000060: 24d5 fa15 b3e0 f714 0110 8508 0d0a 9efc
00000070: be81 ae02 acd3 0def 2feb dffe 0e12 a8c5
00000080: 18ff e303 22d9 1fb5 22af a0d7 f0f0 d0c2
00000090: a719 b720 99f4 0b8c dcad 19a8 deae f408
000000a0: f00d f515 2094 03e4 9e26 ed17 dfd2 0c81
000000b0: 832c 1d1e 1287 c6b3 f8b7 09fc 09cf 0028
000000c0: d015 adf1 231d 14c0 f1e6 f2cf ad20 1532
000000d0: caf1 d011 03f8 b6ee bc13 1a8b 2cd7 f1d6
000000e0: ebf1 06f6 17c0 17e6 27cc 0801 ff97 3130
000000f0: ceb3 1ed7 9bc9 9821 a381 ac00 d5b1 1504

tfl.pseudo_qconst3 i1 [64, 56]
-16 -66 37 101 -127 -62 -56 37
-52 -48 106 -23 120 -70 31 -15
53 -58 100 -85 -88 -97 54 -2
-10 -7 69 115 93 -5 45 -26
72 39 14 -24 -65 112 55 -37
-115 69 46 11 23 56 -69 53
37 -35 -24 4 -67 50 15 -32
-107 -111 87 -93 -36 -102 -107 87
-127 -23 6 -20 -61 30 -71 73
-95 -36 78 16 -94 50 -67 79
57 99 -52 -6 -90 2 -13 87
-83 -14 96 -80 -123 -99 73 -81
-87 -66 56 -83 -45 -102 -112 -37
-122 65 16 123 -101 50 -15 -78
39 99 -2 -6 127 -53 -12 -22
59 48 -16 103 -110 36 66 -21
-7 -8 -28 13 21 -46 24 55
-64 -55 12 -59 26 -30 -54 8
-61 37 111 -46 -17 10 70 3
9 18 -22 67 60 -31 89 -66
29 -8 35 -10 44 -78 -5 -4
-48 42 36 38 28 125 -111 -8
4 -112 -74 -102 62 -100 -125 -95
-85 -34 -64 -71 -108 97 -116 -16
-37 -62 47 -69 36 -73 81 119
117 -57 -39 -93 -4 40 58 51
63 -34 14 -67 -77 32 -127 60
81 92 -2 -85 29 45 -64 -108
-101 34 39 21 39 -41 65 67
-33 39 -106 -33 -12 87 -34 -67
-114 48 -96 6 -127 53 19 70
-95 51 41 29 32 -16 -51 -19
00000000: f0be 2565 81c2 c825 ccd0 6ae9 78ba 1ff1
00000010: 35c6 64ab a89f 36fe f6f9 4573 5dfb 2de6
00000020: 4827 0ee8 bf70 37db 8d45 2e0b 1738 bb35
00000030: 25dd e804 bd32 0fe0 9591 57a3 dc9a 9557
00000040: 81e9 06ec c31e b949 a1dc 4e10 a232 bd4f
00000050: 3963 ccfa a602 f357 adf2 60b0 859d 49af
00000060: a9be 38ad d39a 90db 8641 107b 9b32 f1b2
00000070: 2763 fefa 7fcb f4ea 3b30 f067 9224 42eb
00000080: f9f8 e40d 15d2 1837 c0c9 0cc5 1ae2 ca08
00000090: c325 6fd2 ef0a 4603 0912 ea43 3ce1 59be
000000a0: 1df8 23f6 2cb2 fbfc d02a 2426 1c7d 91f8
000000b0: 0490 b69a 3e9c 83a1 abde c0b9 9461 8cf0
000000c0: dbc2 2fbb 24b7 5177 75c7 d9a3 fc28 3a33
000000d0: 3fde 0ebd b320 813c 515c feab 1d2d c094
000000e0: 9b22 2715 27d7 4143 df27 96df f457 debd
000000f0: 8e30 a006 8135 1346 a133 291d 20f0 cded

tfl.pseudo_qconst5 i1 [56, 3, 3, 48]
-14 55 -33 -5 64 5 53 0
13 16 -42 -10 34 0 -9 0
2 -13 7 15 -31 -25 -4 -4
-44 -24 29 -19 -8 21 -24 -9
34 20 2 -32 11 24 -11 2
-27 23 -14 25 35 -19 20 9
-4 -7 -26 -14 74 32 46 -4
52 46 -64 -62 14 19 -1 -12
4 23 9 6 21 -100 -19 -27
-10 -15 13 18 27 3 -23 -7
-28 26 26 -53 16 49 23 9
-38 13 45 46 -6 -7 1 -4
15 -21 4 -27 -12 37 14 -11
59 22 -16 -5 25 7 20 28
-19 13 36 4 44 -127 -52 -3
-58 -21 21 -5 -1 -2 14 15
-22 35 51 -64 23 4 46 -19
-45 -1 37 -26 -10 36 -8 -19
-16 34 -13 70 32 3 51 31
-21 5 -22 -11 57 -40 -24 -33
17 -52 0 38 -24 21 22 -4
-17 -37 27 11 2 6 -7 -12
4 -23 24 31 19 21 -27 -6
-29 10 -34 60 26 37 2 22
-59 48 -25 38 43 13 52 15
-5 18 -19 -18 -2 9 34 -59
-15 -24 5 15 33 10 39 -8
4 -30 22 22 15 52 -30 -3
27 0 25 -27 7 38 -28 4
-37 16 -38 52 35 25 4 -6
-14 1 13 9 35 10 10 14
-20 -3 -13 -9 59 13 33 -3
00000000: f237 dffb 4005 3500 0d10 d6f6 2200 f700
00000010: 02f3 070f e1e7 fcfc d4e8 1ded f815 e8f7
00000020: 2214 02e0 0b18 f502 e517 f219 23ed 1409
00000030: fcf9 e6f2 4a20 2efc 342e c0c2 0e13 fff4
00000040: 0417 0906 159c ede5 f6f1 0d12 1b03 e9f9
00000050: e41a 1acb 1031 1709 da0d 2d2e faf9 01fc
00000060: 0feb 04e5 f425 0ef5 3b16 f0fb 1907 141c
00000070: ed0d 2404 2c81 ccfd c6eb 15fb fffe 0e0f
00000080: ea23 33c0 1704 2eed d3ff 25e6 f624 f8ed
00000090: f022 f346 2003 331f eb05 eaf5 39d8 e8df
000000a0: 11cc 0026 e815 16fc efdb 1b0b 0206 f9f4
000000b0: 04e9 181f 1315 e5fa e30a de3c 1a25 0216
000000c0: c530 e726 2b0d 340f fb12 edee fe09 22c5
000000d0: f1e8 050f 210a 27f8 04e2 1616 0f34 e2fd
000000e0: 1b00 19e5 0726 e404 db10 da34 2319 04fa
000000f0: f201 0d09 230a 0a0e ecfd f3f7 3b0d 21fd

tfl.pseudo_qconst7 i1 [48, 3, 3, 36]
78 -7 26 44 -44 -4 21 -45
11 14 -2 52 -101 31 -31 42
0 38 24 -36 -79 -20 5 57
41 -5 26 20 1 17 43 19
-18 36 27 -40 86 -30 -18 11
-46 -39 -21 -23 15 -68 0 32
-64 -7 -24 -3 11 62 -31 17
19 -31 -17 -9 -8 87 33 3
19 21 1 5 -13 -41 31 -22
41 45 -35 -29 28 -30 17 52
-44 20 -10 -98 5 -78 46 -17
22 48 13 0 74 -1 17 -1
-80 0 12 41 -17 20 34 -55
32 16 7 -23 -47 43 -31 0
-31 10 -4 11 18 1 -19 77
-9 14 38 -9 -20 -5 102 26
31 -62 -36 -70 -53 -29 32 -65
5 -16 8 27 22 2 -35 32
49 3 -55 5 5 22 -16 -17
-53 -19 -44 44 -48 35 -78 -11
-57 30 57 62 60 -20 -84 -13
-25 69 -35 -15 21 4 -56 -26
-30 -48 -45 -67 82 -15 -34 30
22 -71 -31 16 -49 -4 4 -82
-2 -41 -29 -38 13 53 -22 47
1 -35 -8 -19 -67 45 -30 46
-32 -25 -53 -31 0 -37 -33 37
-31 4 -17 -10 -15 -32 18 7
-2 -5 -48 109 39 21 25 -6
-22 0 46 68 46 -9 -56 -58
-42 -11 78 -28 0 -94 46 20
39 -73 -18 52 33 -6 -20 38
00000000: 4ef9 1a2c d4fc 15d3 0b0e fe34 9b1f e12a
00000010: 0026 18dc b1ec 0539 29fb 1a14 0111 2b13
00000020: ee24 1bd8 56e2 ee0b d2d9 ebe9 0fbc 0020
00000030: c0f9 e8fd 0b3e e111 13e1 eff7 f857 2103
00000040: 1315 0105 f3d7 1fea 292d dde3 1ce2 1134
00000050: d414 f69e 05b2 2eef 1630 0d00 4aff 11ff
00000060: b000 0c29 ef14 22c9 2010 07e9 d12b e100
00000070: e10a fc0b 1201 ed4d f70e 26f7 ecfb 661a
00000080: 1fc2 dcba cbe3 20bf 05f0 081b 1602 dd20
00000090: 3103 c905 0516 f0ef cbed d42c d023 b2f5
000000a0: c71e 393e 3cec acf3 e745 ddf1 1504 c8e6
000000b0: e2d0 d3bd 52f1 de1e 16b9 e110 cffc 04ae
000000c0: fed7 e3da 0d35 ea2f 01dd f8ed bd2d e22e
000000d0: e0e7 cbe1 00db df25 e104 eff6 f1e0 1207
000000e0: fefb d06d 2715 19fa ea00 2e44 2ef7 c8c6
000000f0: d6f5 4ee4 00a2 2e14 27b7 ee34 21fa ec26

tfl.pseudo_qconst9 i1 [36, 3, 3, 20]
63 -29 31 -23 -44 -4 35 23
-70 -2 24 -44 -85 -10 78 -2
-29 39 -9 -19 38 -18 -27 -15
21 24 28 41 28 20 -55 22
27 27 -10 -35 22 -40 5 9
-48 8 7 -22 9 8 -15 5
51 -29 3 36 0 16 -76 -46
10 -36 -8 -35 6 -28 -34 1
18 -47 31 -73 11 -112 -21 -65
5 -64 1 36 -56 35 -57 -49
22 -37 8 -40 3 -6 43 23
-127 -1 -21 -18 -61 -69 53 -3
-23 58 6 -5 17 -47 -31 -36
-15 1 25 16 8 28 -63 24
28 18 21 2 4 15 14 15
-37 -22 -24 -21 -13 1 -43 17
40 -31 -33 12 12 55 -4 -6
6 -30 21 -29 24 15 -52 -24
-74 -6 -5 -47 30 -38 -11 -25
25 -46 41 10 -39 -5 -23 8
33 29 20 -35 -48 13 6 -26
-66 -8 34 4 -17 -63 46 7
-1 32 -7 22 15 -35 -35 -83
-45 9 -29 44 39 35 5 60
63 -5 4 -14 23 -24 43 16
-55 14 -30 -57 -38 31 28 -48
6 -53 9 -62 -55 -51 -23 54
-5 -5 -67 -48 -43 36 -60 -41
-66 3 34 30 -44 13 5 10
1 -1 -16 2 24 43 -24 30
18 -37 -98 -89 -44 -17 32 -28
32 6 13 74 26 -27 -4 2
00000000: 3fe3 1fe9 d4fc 2317 bafe 18d4 abf6 4efe
00000010: e327 f7ed 26ee e5f1 1518 1c29 1c14 c916
00000020: 1b1b f6dd 16d8 0509 d008 07ea 0908 f105
00000030: 33e3 0324 0010 b4d2 0adc f8dd 06e4 de01
00000040: 12d1 1fb7 0b90 ebbf 05c0 0124 c823 c7cf
00000050: 16db 08d8 03fa 2b17 81ff ebee c3bb 35fd
00000060: e93a 06fb 11d1 e1dc f101 1910 081c c118
00000070: 1c12 1502 040f 0e0f dbea e8eb f301 d511
00000080: 28e1 df0c 0c37 fcfa 06e2 15e3 180f cce8
00000090: b6fa fbd1 1eda f5e7 19d2 290a d9fb e908
000000a0: 211d 14dd d00d 06e6 bef8 2204 efc1 2e07
000000b0: ff20 f916 0fdd ddad d309 e32c 2723 053c
000000c0: 3ffb 04f2 17e8 2b10 c90e e2c7 da1f 1cd0
000000d0: 06cb 09c2 c9cd e936 fbfb bdd0 d524 c4d7
000000e0: be03 221e d40d 050a 01ff f002 182b e81e
000000f0: 12db 9ea7 d4ef 20e4 2006 0d4a 1ae5 fc02

tfl.pseudo_qconst11 i1 [20, 3, 3, 1]
29 60 40 74 24 48 -127 -91
-40 -127 10 37 -2 23 3 4
36 47 -8 -67 68 -29 95 124
-127 17 -94 38 -11 -48 28 -20
-127 31 7 60 -45 6 -82 25
-2 -127 102 48 44 35 96 -60
-46 35 -127 63 58 43 -10 -9
67 -50 14 39 -127 79 36 17
-31 -104 -28 76 127 -16 51 -88
-74 -127 76 85 -38 -70 69 34
50 -38 109 -127 101 -50 42 21
-12 -28 -91 33 -24 4 -127 97
-12 55 57 90 -40 -57 -31 -55
-69 -1 23 127 -40 -16 11 84
24 -127 109 20 -65 -127 -76 -114
82 14 75 72 25 52 22 82
25 -55 -10 73 -19 -127 21 -57
-127 67 -3 29 119 -45 15 24
112 -127 -80 65 34 -19 1 62
-62 -51 91 84 -127 125 -59 -58
-34 22 -47 -103 -26 127 48 -42
50 70 -34 -18 -40 43 33 127
-7 -43 13 -74
00000000: 1d3c 284a 1830 81a5 d881 0a25 fe17 0304
00000010: 242f f8bd 44e3 5f7c 8111 a226 f5d0 1cec
00000020: 811f 073c d306 ae19 fe81 6630 2c23 60c4
00000030: d223 813f 3a2b f6f7 43ce 0e27 814f 2411
00000040: e198 e44c 7ff0 33a8 b681 4c55 daba 4522
00000050: 32da 6d81 65ce 2a15 f4e4 a521 e804 8161
00000060: f437 395a d8c7 e1c9 bbff 177f d8f0 0b54
00000070: 1881 6d14 bf81 b48e 520e 4b48 1934 1652
00000080: 19c9 f649 ed81 15c7 8143 fd1d 77d3 0f18
00000090: 7081 b041 22ed 013e c2cd 5b54 817d c5c6
000000a0: de16 d199 e67f 30d6 3246 deee d82b 217f
000000b0: f9d5 0db6
